…
iddens': 32, 'num_layers': 8, 'num_skip_layers': 1, 'encoder_channels': [32], 'decoder_channels': [128, 16], 'num_classes': 1, 'aggregation': 'max', 'apply_dropedge': True, 'apply_bn': True, 'apply_dropout': True}"], ["ResGNN(\n  (conv_layers): ModuleList(\n    (0): SAGEConv(3, 32, aggr=mean)\n    (1): SAGEConv(32, 32, aggr=mean)\n    (2): SAGEConv(32, 32, aggr=mean)\n    (3): SAGEConv(32, 32, aggr=mean)\n    (4): SAGEConv(32, 32, aggr=mean)\n    (5): SAGEConv(32, 32, aggr=mean)\n    (6): SAGEConv(32, 32, aggr=mean)\n    (7): SAGEConv(32, 32, aggr=mean)\n  )\n  (bn_layers): ModuleList(\n    (0): BatchNorm1d(32, eps=1e-05, momentum=0.1, affine=True, track_running_stats=True)\n    (1): BatchNorm1d(32, eps=1e-05, momentum=0.1, affine=True, track_running_stats=True)\n    (2): BatchNorm1d(32, eps=1e-05, momentum=0.1, affine=True, track_running_stats=True)\n    (3): BatchNorm1d(32, eps=1e-05, momentum=0.1, affine=True, track_running_stats=True)\n    (4): BatchNorm1d(32, eps=1e-05, momentum=0.1, affine=True, track_running_stats=True)\n    (5): BatchNorm1d(32, eps=1e-05, momentum=0.1, affine=True, track_running_stats=True)\n    (6): BatchNorm1d(32, eps=1e-05, momentum=0.1, affine=True, track_running_stats=True)\n    (7): BatchNorm1d(32, eps=1e-05, momentum=0.1, affine=True, track_running_stats=True)\n  )\n  (linear_encoder): Sequential(\n    (0): Linear(in_features=32, out_features=32, bias=True)\n    (1): ReLU()\n  )\n  (final_projection): Sequential(\n    (0): Linear(in_features=32, out_features=128, bias=True)\n    (1): ReLU()\n    (2): Dropout(p=0.5, inplace=False)\n    (3): Linear(in_features=128, out_features=16, bias=True)\n    (4): ReLU()\n    (5): Dropout(p=0.5, inplace=False)\n    (6): Linear(in_features=16, out_features=1, bias=True)\n    (7): Identity()\n  )\n)"]]}